apps/streamlit/eda-classification-iris/model_iris_classification.pth (torch, 3223 bytes, 6 tensors)

layer1.weight f4 [16, 4]
000000 9c a4 1e be 20 ac f8 3c 5c 2c 07 3e c6 1b ae be
       -0.15492481 0.030355513 0.13200516 -0.34005564
000010 30 f6 67 be a0 80 68 be c0 ca 24 be 46 06 a8 be
       -0.22652507 -0.22705317 -0.16092968 -0.32817286
000020 78 0b 9f be 30 b2 f8 bd 38 4d 97 3e fe 98 9d be
       -0.31063437 -0.121433616 0.295511 -0.30780786
000030 00 e4 c1 be 44 86 77 be 88 79 ca 3e da 8d 9d 3e
       -0.37869263 -0.24172312 0.39545846 0.30772287
000040 c3 5f be 3e a6 26 8c 3d 82 7d 8d 3e 74 6f fc 3d
       0.37182435 0.06843309 0.27634817 0.123259455
000050 31 9c 92 bd a6 6b 06 bc 09 91 7e 3f 8b 89 4b 3f
       -0.071586974 -0.008204376 0.99440056 0.7950675
000060 12 ab bf 3d 1e 77 d1 be 1b a3 80 3f 95 70 5e 3f
       0.09358801 -0.40911192 1.0049776 0.86890537
000070 40 eb dd 3c 8c 86 b6 be 60 23 c8 bd a8 91 c9 3e
       0.027089715 -0.35649526 -0.09772372 0.3936894
000080 85 59 2f 3f 26 74 33 3f 72 f3 f5 bd 2b 04 79 bf
       0.6849597 0.70099103 -0.12009324 -0.97271985
000090 8a f8 c7 be 0c 1a 8e bd 95 94 cf 3e e7 da ef bd
       -0.39056808 -0.06938562 0.40543047 -0.11711674
0000a0 32 83 ac be 28 eb f6 be e0 6a 40 3e 10 b6 24 be
       -0.33693844 -0.48226285 0.1879077 -0.16085076
0000b0 14 9a 01 bf 94 a5 bf 3e a2 5d 25 3e 7e 6c 1e 3e
       -0.5062573 0.37431014 0.16149 0.15471074
0000c0 90 7b d9 bd 40 61 eb be e0 ab 65 be 4c f1 28 3e
       -0.10619271 -0.45972633 -0.22428846 0.16498297
0000d0 aa 2e 58 3e 19 08 2c bf 09 b2 7a 3f 41 03 0c 3f
       0.21111551 -0.67199856 0.9792791 0.54692465
0000e0 d2 12 3f 3f d8 9d 1a 3f 56 d4 51 3e 1e ae 7a be
       0.7463809 0.603971 0.20491156 -0.24480483
0000f0 10 f0 15 be 10 07 c4 be ae 7d b3 be 58 41 7f 3e
       -0.14642358 -0.38286638 -0.35056823 0.2492727

layer1.bias f4 [16]
000000 8c 39 c0 3e 9e fe 8f 3e 32 8e 9f 3e 58 f8 c0 3d
       0.37543905 0.28123945 0.31163174 0.09422368
000010 c4 bb 14 be d9 3d 69 bf 31 cc b4 be e0 23 d5 3c
       -0.14524752 -0.9111 -0.35312036 0.026018083
000020 88 20 88 3f 1d f5 ca be c2 96 8b 3e 10 cd a3 be
       1.0634928 -0.39640132 0.27263457 -0.31992388
000030 02 c8 8e 3e ca 5a 24 bf 97 24 81 3f 88 16 dd bd
       0.2788697 -0.64201033 1.0089291 -0.10795313

layer2.weight f4 [12, 16]
000000 b0 e8 f7 3c 94 46 f0 3d f2 29 1f be f8 0c 27 3e
       0.030262321 0.11732212 -0.15543345 0.16313541
000010 77 e2 e3 3c 75 04 ec bd 24 16 cf be d4 71 d8 bd
       0.027817948 -0.115242876 -0.4044658 -0.10568586
000020 8e ae 23 3f c1 4f 22 3b 78 fe 91 bd 9c 64 a9 3c
       0.63938224 0.0024766775 -0.07128614 0.020677857
000030 f4 25 47 3e 52 22 ee be 83 5d cc 3e 0c ba 66 be
       0.19448072 -0.4651056 0.39915094 -0.22531909
000040 9c 41 97 3d 58 27 7b 3e 5e bf 6e be 08 cb 2c 3d
       0.07385561 0.24526727 -0.23315188 0.042185813
000050 29 e7 9b bd b4 c5 2b be 8f fe e3 bd f8 c1 46 bd
       -0.0761245 -0.16774637 -0.111325376 -0.048524827
000060 21 02 48 3c 00 01 1b bd 44 18 84 3d 3a d8 24 3e
       0.012207539 -0.03784275 0.06449941 0.16098109
000070 18 a3 1d be 69 4c 8a bd 5c 11 aa 3d dc 7e c7 bd
       -0.15394247 -0.06752855 0.08304092 -0.097409934
000080 fc 9d b6 bd 30 3b 49 bd 3a 42 41 3e a2 0d 60 be
       -0.08916852 -0.04912871 0.1887292 -0.218802
000090 f4 aa 72 3e 26 14 ab be 96 d5 0c be e8 6d 34 be
       0.23698026 -0.3341381 -0.13753352 -0.17620051
0000a0 b7 1f 45 3f 26 57 07 be f0 2b 0b 3d 11 1d 09 be
       0.7700152 -0.13216838 0.03397745 -0.13389994
0000b0 a4 89 d7 3d 5d dc 3d bf d4 6f bb 3e 3a d8 3f be
       0.105243 -0.7416437 0.36608756 -0.18734828
0000c0 9c 57 49 3e b8 ad 73 be 6a d8 03 be 60 3e 00 bc
       0.19662327 -0.23796737 -0.12875524 -0.007827371
0000d0 14 01 96 3e 3a 53 0e 3f 3c 9b 4f 3e 00 1e 33 bd
       0.29297698 0.55595744 0.20274061 -0.043729782
0000e0 0d 3b a5 be 01 6c 75 bd 32 26 34 3e e6 04 07 be
       -0.32271615 -0.059917454 0.17592695 -0.13185462
0000f0 a0 1e 7f 3d 05 06 26 3f a2 64 92 3c 6e 04 34 3e
       0.062285066 0.64852935 0.017870251 0.17579815
000100 00 3a c3 bb 32 4c 3f be 3a dc 74 3e 0c 8c 25 be
       -0.005957842 -0.1868141 0.23912135 -0.16166705
000110 a0 18 3e 3d 1b bc e3 3e 3d eb 96 3e d8 f4 35 bd
       0.046410203 0.4447945 0.29476348 -0.044422954
000120 f0 23 d8 be b9 41 bd 3c 8a ed 37 3e e5 18 1e be
       -0.42214918 0.023102628 0.17961708 -0.15439184
000130 98 9b e9 bd cd cd f8 3e a7 8a f6 3d 70 b0 2b be
       -0.1140663 0.48594514 0.120381646 -0.16766524
000140 20 94 9d bd da 71 10 be ea fa 36 be b4 5c 0a 3e
       -0.07694268 -0.14105931 -0.17869154 0.13511926
000150 39 72 dc 3d 40 3d 08 bd e4 54 b4 be 9c fd e0 3d
       0.10763974 -0.033261538 -0.35221016 0.10985872
000160 f6 cd 67 3d f4 83 fd 3c 50 83 96 bd b6 0d 21 be
       0.056592904 0.03094671 -0.073492646 -0.15727887
000170 e4 5e 9d 3d 9e 51 81 be e0 fa dd bd c0 b2 5d 3e
       0.076841146 -0.2525758 -0.10838866 0.21650219
000180 40 e1 9e bd 60 2c 98 3d 8c 3d 00 be cc f6 da bd
       -0.07757807 0.07430339 -0.12523478 -0.10691604
000190 10 5e 35 3d 54 0b a0 3d 06 54 25 be 40 70 6e 3c
       0.044279158 0.07814661 -0.16145334 0.01455313
0001a0 c8 a6 ba bd 00 68 c0 39 88 b5 56 be 2e b3 7b 3e
       -0.09113842 0.0003669858 -0.20967686 0.2458007
0001b0 b4 87 9f bd 94 91 6e 3e 18 2b 3f be bc a8 a6 bd
       -0.07789555 0.23297721 -0.18668783 -0.08137652
0001c0 26 b0 5a 3e 80 6c bf 3d 00 30 01 bc a8 0a a1 3d
       0.21356258 0.093468666 -0.007884979 0.07863361
0001d0 9d 55 08 3e 7b 07 bb be 42 c0 51 bd 96 08 62 3e
       0.13313909 -0.36529145 -0.051208742 0.22073588
0001e0 97 10 1c 3f 58 01 a0 be 00 cb 18 3c bb 94 3e be
       0.60962814 -0.31251025 0.009325743 -0.18611424
0001f0 70 34 b6 bc d5 8b 1b bf ab ac ce 3e f4 fd 75 3e
       -0.022241801 -0.6076024 0.4036611 0.24022657
000200 08 24 fe bd 8c 52 de 3d a0 fe 01 3d a4 49 0b 3e
       -0.12409216 0.10855588 0.03173697 0.1360231
000210 18 32 15 3e 64 93 75 3e ad f5 3e 3e a6 ca 30 3e
       0.1456989 0.23982006 0.18648405 0.17264804
000220 59 d0 23 3e 4e 9c b9 3c f2 5b 00 be 9c 18 ee 3d
       0.15997447 0.02265754 -0.12535074 0.116257876
000230 30 2c b8 3d 3d 7a 00 3f 61 63 8a 3d 80 51 fc bd
       0.08992803 0.5018652 0.06757236 -0.123202324
000240 e0 62 3c be 0e 57 39 3e 80 8e 29 bb 7e 7c 64 be
       -0.18397093 0.18099615 -0.002587229 -0.22313115
000250 4c 92 86 3d 50 04 71 bd c4 95 f8 bd 88 0e 46 3e
       0.06570873 -0.058842003 -0.121379405 0.1934148
000260 f8 ac 4d 3d 60 c9 42 bd 30 22 7d 3e 30 7d b6 3c
       0.050213784 -0.047555327 0.24720073 0.02227649
000270 1c f9 66 3e d0 f9 d0 3c dc 4a 84 bd 9a db 3a be
       0.22555965 0.025509745 -0.06459591 -0.18247834
000280 08 99 17 3e 30 c4 ab bd c0 53 83 bd 5e 54 3a be
       0.1480447 -0.08387029 -0.064124584 -0.18196246
000290 98 4d 60 3e 14 30 9b 3e c8 43 9e 3e 28 d1 7e be
       0.219046 0.30310118 0.30911088 -0.24884474
0002a0 17 dd df be 98 71 5f 3d 50 fd fb 3c 9d 10 b1 3c
       -0.43723366 0.05455169 0.030760437 0.021614367
0002b0 ac b1 23 be 0b 4a 1d 3f 10 95 32 3e 50 be c1 3c
       -0.15985745 0.61441106 0.17439675 0.023650318
0002c0 ca 55 27 3e f4 d7 94 bd 4a a2 66 3e 68 ef 25 3d
       0.1634132 -0.07267752 0.22522846 0.04051152
0002d0 16 fa 2b 3e bb a5 16 bd eb 13 a0 be 20 32 c6 3d
       0.16794619 -0.036779147 -0.31265196 0.09677529
0002e0 18 37 81 be 10 c2 74 be 94 a5 48 3e 68 0a 4b 3d
       -0.25237346 -0.23902154 0.19594413 0.04957047
0002f0 a4 cf 52 be b9 03 8a 3d 17 e7 c2 3d cc 2e be 3d
       -0.20587021 0.06738991 0.09516733 0.092862695

layer2.bias f4 [12]
000000 b6 69 e7 3e 1c b4 79 bc 6e e2 22 3f 3e f2 88 be
       0.4519784 -0.015240695 0.63626754 -0.26747316
000010 2c 50 db be bf 34 95 3d 64 b2 8b 3d de 14 20 3f
       -0.42834604 0.07285451 0.06821135 0.6253184
000020 ce e2 a3 3d f0 70 28 bd 07 f4 97 be 7f 80 ad bd
       0.08002244 -0.04112333 -0.29678366 -0.08471774

output.weight f4 [3, 12]
000000 5e e8 26 3f 4d 24 7f 3e e0 60 e0 3e e1 61 e8 be
       0.65198314 0.24916191 0.4382391 -0.45387176
000010 76 07 ae be 52 d5 43 bc 37 28 c6 bd bf af 0f 3f
       -0.33990067 -0.011952715 -0.09675639 0.5612754
000020 66 08 48 bf dd fc 4c be 9a f5 fa be 99 2d 89 3c
       -0.78137815 -0.20018335 -0.49015504 0.016745375
000030 08 6b 6a 3e a4 a7 e7 bc 1b 0c fd 3d 35 54 98 bc
       0.22892392 -0.02827818 0.123558246 -0.01859484
000040 49 a4 b6 bb ad 96 6d bd 34 79 f8 3c 43 a4 89 3e
       -0.0055737835 -0.058005024 0.030331232 0.26883134
000050 c7 ab 8f 3e 54 e7 a3 bd 65 04 11 be 1b 74 02 3d
       0.28060743 -0.08003107 -0.14161833 0.031849008
000060 12 33 19 bf 1d 1d 4f bd 02 d0 49 bf e4 19 25 3f
       -0.5984355 -0.050564874 -0.7883302 0.6449263
000070 87 50 36 3f 77 55 38 be 78 85 25 3c 95 01 5e bf
       0.71216625 -0.18001352 0.010102622 -0.86721164
000080 fa c7 db bc ea ab d3 bd 61 1f a0 3e ab ed dc 3d
       -0.026828755 -0.103355244 0.3127394 0.10787519

output.bias f4 [3]
000000 f3 44 01 3d 0f a2 67 3e 52 a9 b7 bd
       0.031559896 0.22620414 -0.08967842
